PlainRepConv(
  (head): Conv3X3(
    (conv3x3): Conv2d(3, 32, kernel_size=(3, 3), stride=(1, 1), padding=(1, 1))
    (act): ReLU(inplace=True)
  )
  (backbone): Sequential(
    (0): RepBlock(
      (act): ReLU(inplace=True)
      (conv0): Conv2d(32, 256, kernel_size=(3, 3), stride=(1, 1), padding=(1, 1))
      (conv1): Conv2d(256, 32, kernel_size=(1, 1), stride=(1, 1))
    )
    (1): RepBlock(
      (act): ReLU(inplace=True)
      (conv0): Conv2d(32, 256, kernel_size=(3, 3), stride=(1, 1), padding=(1, 1))
      (conv1): Conv2d(256, 32, kernel_size=(1, 1), stride=(1, 1))
    )
    (2): RepBlock(
      (act): ReLU(inplace=True)
      (conv0): Conv2d(32, 256, kernel_size=(3, 3), stride=(1, 1), padding=(1, 1))
      (conv1): Conv2d(256, 32, kernel_size=(1, 1), stride=(1, 1))
    )
    (3): RepBlock(
      (act): ReLU(inplace=True)
      (conv0): Conv2d(32, 256, kernel_size=(3, 3), stride=(1, 1), padding=(1, 1))
      (conv1): Conv2d(256, 32, kernel_size=(1, 1), stride=(1, 1))
    )
  )
  (transition): Sequential(
    (0): Conv3X3(
      (conv3x3): Conv2d(32, 12, kernel_size=(3, 3), stride=(1, 1), padding=(1, 1))
    )
  )
  (upsampler): PixelShuffle(upscale_factor=2)
)
[DIV2K-X2], PSNR/SSIM: 17.91/0.2772 (Best: 17.91/0.2772, Epoch: 1/1)

[DIV2K-X2], PSNR/SSIM: 31.30/0.9027 (Best: 31.30/0.9027, Epoch: 2/2)

[DIV2K-X2], PSNR/SSIM: 32.22/0.9134 (Best: 32.22/0.9134, Epoch: 3/3)

[DIV2K-X2], PSNR/SSIM: 32.77/0.9213 (Best: 32.77/0.9213, Epoch: 4/4)

[DIV2K-X2], PSNR/SSIM: 32.96/0.9224 (Best: 32.96/0.9224, Epoch: 5/5)
…
